{"class_name": "Sequential", "keras_version": "2.1.6", "config": [{"class_name": "Dense", "config": {"bias_regularizer": null, "units": 512, "dtype": "float32", "activity_regularizer": null, "kernel_initializer": {"class_name": "VarianceScaling", "config": {"distribution": "uniform", "seed": null, "mode": "fan_avg", "scale": 1.0}}, "batch_input_shape": [null, 16], "name": "dense_1", "bias_initializer": {"class_name": "Zeros", "config": {}}, "bias_constraint": null, "activation": "relu", "trainable": true, "kernel_constraint": null, "kernel_regularizer": null, "use_bias": true}}, {"class_name": "Dropout", "config": {"trainable": true, "name": "dropout_1", "noise_shape": null, "rate": 0.5, "seed": null}}, {"class_name": "Dense", "config": {"bias_regularizer": null, "kernel_initializer": {"class_name": "VarianceScaling", "config": {"distribution": "uniform", "seed": null, "mode": "fan_avg", "scale": 1.0}}, "kernel_regularizer": null, "name": "dense_2", "bias_initializer": {"class_name": "Zeros", "config": {}}, "bias_constraint": null, "activation": "relu", "trainable": true, "kernel_constraint": null, "units": 256, "activity_regularizer": null, "use_bias": true}}, {"class_name": "Dropout", "config": {"trainable": true, "name": "dropout_2", "noise_shape": null, "rate": 0.5, "seed": null}}, {"class_name": "Dense", "config": {"bias_regularizer": null, "kernel_initializer": {"class_name": "VarianceScaling", "config": {"distribution": "uniform", "seed": null, "mode": "fan_avg", "scale": 1.0}}, "kernel_regularizer": null, "name": "dense_3", "bias_initializer": {"class_name": "Zeros", "config": {}}, "bias_constraint": null, "activation": "relu", "trainable": true, "kernel_constraint": null, "units": 128, "activity_regularizer": null, "use_bias": true}}, {"class_name": "Dropout", "config": {"trainable": true, "name": "dropout_3", "noise_shape": null, "rate": 0.5, "seed": null}}, {"class_name": "Dense", "config": {"bias_regularizer": null, "kernel_initializer": {"class_name": "VarianceScaling", "config": {"distribution": "uniform", "seed": null, "mode": "fan_avg", "scale": 1.0}}, "kernel_regularizer": null, "name": "dense_4", "bias_initializer": {"class_name": "Zeros", "config": {}}, "bias_constraint": null, "activation": "relu", "trainable": true, "kernel_constraint": null, "units": 64, "activity_regularizer": null, "use_bias": true}}, {"class_name": "Dropout", "config": {"trainable": true, "name": "dropout_4", "noise_shape": null, "rate": 0.5, "seed": null}}, {"class_name": "Dense", "config": {"bias_regularizer": null, "kernel_initializer": {"class_name": "VarianceScaling", "config": {"distribution": "uniform", "seed": null, "mode": "fan_avg", "scale": 1.0}}, "kernel_regularizer": null, "name": "dense_5", "bias_initializer": {"class_name": "Zeros", "config": {}}, "bias_constraint": null, "activation": "relu", "trainable": true, "kernel_constraint": null, "units": 32, "activity_regularizer": null, "use_bias": true}}, {"class_name": "Dropout", "config": {"trainable": true, "name": "dropout_5", "noise_shape": null, "rate": 0.5, "seed": null}}, {"class_name": "Dense", "config": {"bias_regularizer": null, "kernel_initializer": {"class_name": "VarianceScaling", "config": {"distribution": "uniform", "seed": null, "mode": "fan_avg", "scale": 1.0}}, "kernel_regularizer": null, "name": "dense_6", "bias_initializer": {"class_name": "Zeros", "config": {}}, "bias_constraint": null, "activation": "sigmoid", "trainable": true, "kernel_constraint": null, "units": 1, "activity_regularizer": null, "use_bias": true}}], "backend": "tensorflow"}